…
16:04:10,219 root INFO {'env_specs': {'observation_space': Box(-inf, inf, (11,), float64), 'action_space': Box(-1.0, 1.0, (3,), float32)}, 'num_obs': 11, 'num_actions': 3, 'action_limit': 1.0, 'current_timestep': 0, 'current_episode': 0, 'episode_of_last_update': None, 'device': device(type='cuda'), 'gamma': 0.99, 'polyak': 0.995, 'action_noise_scale': 0.1, 'action_noise_rescaling': 1, 'action_noise_rescaling_frequency': 500000, 'exploration_timesteps': 10000, 'update_frequency_in_episodes': 50, 'update_start_in_episodes': 1000, 'number_of_batch_updates': 1000, 'batch_size': 100, 'q_network': QNetwork(
  (network): Sequential(
    (0): Linear(in_features=14, out_features=64, bias=True)
    (1): ReLU()
    (2): Linear(in_features=64, out_features=64, bias=True)
    (3): ReLU()
    (4): Linear(in_features=64, out_features=1, bias=True)
  )
), 'q_optimizer': Adam (
Parameter Group 0
    amsgrad: False
    betas: (0.9, 0.999)
    eps: 1e-08
    lr: 0.001
    maximize: False
    weight_decay: 0
), 'q_network_target': QNetwork(
  (network): Sequential(
    (0): Linear(in_features=14, out_features=64, bias=True)
    (1): ReLU()
    (2): Linear(in_features=64, out_features=64, bias=True)
    (3): ReLU()
    (4): Linear(in_features=64, out_features=1, bias=True)
  )
), 'policy_network': PolicyNetwork(
  (network): Sequential(
    (0): Linear(in_features=11, out_features=64, bias=True)
    (1): ReLU()
    (2): Linear(in_features=64, out_features=64, bias=True)
    (3): ReLU()
    (4): Linear(in_features=64, out_features=3, bias=True)
    (5): Tanh()
  )
), 'policy_optimizer': Adam (
Parameter Group 0
    amsgrad: False
    betas: (0.9, 0.999)
    eps: 1e-08
    lr: 0.001
    maximize: False
    weight_decay: 0
), 'policy_network_target': PolicyNetwork(
  (network): Sequential(
    (0): Linear(in_features=11, out_features=64, bias=True)
    (1): ReLU()
    (2): Linear(in_features=64, out_features=64, bias=True)
    (3): ReLU()
    (4): Linear(in_features=64, out_features=3, bias=True)
    (5): Tanh()
  )
), 'buffer': <ddpg_agent.agent.DDPGBuffer object at 0x7f4755b57510>}
16:04:11,591 root INFO timestep: 1000, acc_reward: 33.89
16:04:11,601 root INFO checkpoint saved: /home/mila/c/cesare.spinoso/GROUP_013/results/2022-04-09_16h04m04/ddpg_ckpt_m_0_33.888.pth.tar
16:04:12,342 root INFO timestep: 2000, acc_reward: 33.79
16:04:13,72 root INFO timestep: 3000, acc_reward: 33.81
…
19:28:07,650 root INFO {'env_specs': {'observation_space': Box(-inf, inf, (11,), float64), 'action_space': Box(-1.0, 1.0, (3,), float32)}, 'num_obs': 11, 'num_actions': 3, 'action_limit': 1.0, 'current_timestep': 0, 'current_episode': 0, 'episode_of_last_update': None, 'device': device(type='cuda'), 'gamma': 0.99, 'polyak': 0.995, 'action_noise_scale': 0.1, 'action_noise_rescaling': 1, 'action_noise_rescaling_frequency': 500000, 'exploration_timesteps': 10000, 'update_frequency_in_episodes': 50, 'update_start_in_episodes': 1000, 'number_of_batch_updates': 1000, 'batch_size': 100, 'q_network': QNetwork(
  (network): Sequential(
    (0): Linear(in_features=14, out_features=100, bias=True)
    (1): ReLU()
    (2): Linear(in_features=100, out_features=50, bias=True)
    (3): ReLU()
    (4): Linear(in_features=50, out_features=25, bias=True)
    (5): ReLU()
    (6): Linear(in_features=25, out_features=1, bias=True)
  )
), 'q_optimizer': Adam (
Parameter Group 0
    amsgrad: False
    betas: (0.9, 0.999)
    eps: 1e-08
    lr: 0.001
    maximize: False
    weight_decay: 0
), 'q_network_target': QNetwork(
  (network): Sequential(
    (0): Linear(in_features=14, out_features=100, bias=True)
    (1): ReLU()
    (2): Linear(in_features=100, out_features=50, bias=True)
    (3): ReLU()
    (4): Linear(in_features=50, out_features=25, bias=True)
    (5): ReLU()
    (6): Linear(in_features=25, out_features=1, bias=True)
  )
), 'policy_network': PolicyNetwork(
  (network): Sequential(
    (0): Linear(in_features=11, out_features=100, bias=True)
    (1): ReLU()
    (2): Linear(in_features=100, out_features=50, bias=True)
    (3): ReLU()
    (4): Linear(in_features=50, out_features=25, bias=True)
    (5): ReLU()
    (6): Linear(in_features=25, out_features=3, bias=True)
    (7): Tanh()
  )
), 'policy_optimizer': Adam (
Parameter Group 0
    amsgrad: False
    betas: (0.9, 0.999)
    eps: 1e-08
    lr: 0.001
    maximize: False
    weight_decay: 0
), 'policy_network_target': PolicyNetwork(
  (network): Sequential(
    (0): Linear(in_features=11, out_features=100, bias=True)
    (1): ReLU()
    (2): Linear(in_features=100, out_features=50, bias=True)
    (3): ReLU()
    (4): Linear(in_features=50, out_features=25, bias=True)
    (5): ReLU()
    (6): Linear(in_features=25, out_features=3, bias=True)
    (7): Tanh()
  )
), 'buffer': <ddpg_agent.agent.DDPGBuffer object at 0x7f474c1217d0>}
19:28:08,341 root INFO timestep: 1000, acc_reward: 26.16
19:28:08,349 root INFO checkpoint saved: /home/mila/c/cesare.spinoso/GROUP_013/results/2022-04-09_16h04m04/ddpg_ckpt_m_1_26.164.pth.tar
19:28:09,107 root INFO timestep: 2000, acc_reward: 26.00
19:28:09,724 root INFO timestep: 3000, acc_reward: 26.11
…
21:59:31,24 root INFO {'env_specs': {'observation_space': Box(-inf, inf, (11,), float64), 'action_space': Box(-1.0, 1.0, (3,), float32)}, 'num_obs': 11, 'num_actions': 3, 'action_limit': 1.0, 'current_timestep': 0, 'current_episode': 0, 'episode_of_last_update': None, 'device': device(type='cuda'), 'gamma': 0.99, 'polyak': 0.995, 'action_noise_scale': 0.1, 'action_noise_rescaling': 1, 'action_noise_rescaling_frequency': 500000, 'exploration_timesteps': 10000, 'update_frequency_in_episodes': 50, 'update_start_in_episodes': 1000, 'number_of_batch_updates': 1000, 'batch_size': 100, 'q_network': QNetwork(
  (network): Sequential(
    (0): Linear(in_features=14, out_features=400, bias=True)
    (1): ReLU()
    (2): Linear(in_features=400, out_features=300, bias=True)
    (3): ReLU()
    (4): Linear(in_features=300, out_features=1, bias=True)
  )
), 'q_optimizer': Adam (
Parameter Group 0
    amsgrad: False
    betas: (0.9, 0.999)
    eps: 1e-08
    lr: 0.001
    maximize: False
    weight_decay: 0
), 'q_network_target': QNetwork(
  (network): Sequential(
    (0): Linear(in_features=14, out_features=400, bias=True)
    (1): ReLU()
    (2): Linear(in_features=400, out_features=300, bias=True)
    (3): ReLU()
    (4): Linear(in_features=300, out_features=1, bias=True)
  )
), 'policy_network': PolicyNetwork(
  (network): Sequential(
    (0): Linear(in_features=11, out_features=400, bias=True)
    (1): ReLU()
    (2): Linear(in_features=400, out_features=300, bias=True)
    (3): ReLU()
    (4): Linear(in_features=300, out_features=3, bias=True)
    (5): Tanh()
  )
), 'policy_optimizer': Adam (
Parameter Group 0
    amsgrad: False
    betas: (0.9, 0.999)
    eps: 1e-08
    lr: 0.001
    maximize: False
    weight_decay: 0
), 'policy_network_target': PolicyNetwork(
  (network): Sequential(
    (0): Linear(in_features=11, out_features=400, bias=True)
    (1): ReLU()
    (2): Linear(in_features=400, out_features=300, bias=True)
    (3): ReLU()
    (4): Linear(in_features=300, out_features=3, bias=True)
    (5): Tanh()
  )
), 'buffer': <ddpg_agent.agent.DDPGBuffer object at 0x7f4744413610>}
21:59:31,552 root INFO timestep: 1000, acc_reward: 11.65
21:59:31,563 root INFO checkpoint saved: /home/mila/c/cesare.spinoso/GROUP_013/results/2022-04-09_16h04m04/ddpg_ckpt_m_2_11.645.pth.tar
21:59:32,16 root INFO timestep: 2000, acc_reward: 11.65
21:59:32,25 root INFO checkpoint saved: /home/mila/c/cesare.spinoso/GROUP_013/results/2022-04-09_16h04m04/ddpg_ckpt_m_2_11.65.pth.tar
…
