…
09:11:42,211 root INFO {'env_specs': {'observation_space': Box(-inf, inf, (11,), float64), 'action_space': Box(-1.0, 1.0, (3,), float32)}, 'num_obs': 11, 'num_actions': 3, 'action_limit': 1.0, 'current_timestep': 0, 'current_episode': 0, 'episode_of_last_update': None, 'device': device(type='cuda'), 'gamma': 0.99, 'polyak': 0.995, 'action_noise_scale': 0.1, 'action_noise_rescaling': 1, 'action_noise_rescaling_frequency': 500000, 'target_noise_scale': 0.2, 'target_noise_clip': 0.5, 'policy_delay': 2, 'exploration_timesteps': 10000, 'update_frequency_in_episodes': 50, 'update_start_in_episodes': 1000, 'number_of_batch_updates': 1000, 'batch_size': 100, 'q1_network': QNetwork(
  (network): Sequential(
    (0): Linear(in_features=14, out_features=100, bias=True)
    (1): ReLU()
    (2): Linear(in_features=100, out_features=50, bias=True)
    (3): ReLU()
    (4): Linear(in_features=50, out_features=25, bias=True)
    (5): ReLU()
    (6): Linear(in_features=25, out_features=1, bias=True)
  )
), 'q1_optimizer': Adam (
Parameter Group 0
    amsgrad: False
    betas: (0.9, 0.999)
    eps: 1e-08
    lr: 0.001
    maximize: False
    weight_decay: 0
), 'q2_network': QNetwork(
  (network): Sequential(
    (0): Linear(in_features=14, out_features=100, bias=True)
    (1): ReLU()
    (2): Linear(in_features=100, out_features=50, bias=True)
    (3): ReLU()
    (4): Linear(in_features=50, out_features=25, bias=True)
    (5): ReLU()
    (6): Linear(in_features=25, out_features=1, bias=True)
  )
), 'q2_optimizer': Adam (
Parameter Group 0
    amsgrad: False
    betas: (0.9, 0.999)
    eps: 1e-08
    lr: 0.001
    maximize: False
    weight_decay: 0
), 'q1_network_target': QNetwork(
  (network): Sequential(
    (0): Linear(in_features=14, out_features=100, bias=True)
    (1): ReLU()
    (2): Linear(in_features=100, out_features=50, bias=True)
    (3): ReLU()
    (4): Linear(in_features=50, out_features=25, bias=True)
    (5): ReLU()
    (6): Linear(in_features=25, out_features=1, bias=True)
  )
), 'q2_network_target': QNetwork(
  (network): Sequential(
    (0): Linear(in_features=14, out_features=100, bias=True)
    (1): ReLU()
    (2): Linear(in_features=100, out_features=50, bias=True)
    (3): ReLU()
    (4): Linear(in_features=50, out_features=25, bias=True)
    (5): ReLU()
    (6): Linear(in_features=25, out_features=1, bias=True)
  )
), 'policy_network': PolicyNetwork(
  (network): Sequential(
    (0): Linear(in_features=11, out_features=100, bias=True)
    (1): ReLU()
    (2): Linear(in_features=100, out_features=50, bias=True)
    (3): ReLU()
    (4): Linear(in_features=50, out_features=25, bias=True)
    (5): ReLU()
    (6): Linear(in_features=25, out_features=3, bias=True)
    (7): Tanh()
  )
), 'policy_optimizer': Adam (
Parameter Group 0
    amsgrad: False
    betas: (0.9, 0.999)
    eps: 1e-08
    lr: 0.001
    maximize: False
    weight_decay: 0
), 'policy_network_target': PolicyNetwork(
  (network): Sequential(
    (0): Linear(in_features=11, out_features=100, bias=True)
    (1): ReLU()
    (2): Linear(in_features=100, out_features=50, bias=True)
    (3): ReLU()
    (4): Linear(in_features=50, out_features=25, bias=True)
    (5): ReLU()
    (6): Linear(in_features=25, out_features=3, bias=True)
    (7): Tanh()
  )
), 'buffer': <td3_agent.agent.TD3Buffer object at 0x7fdfd46468e0>}
09:11:42,911 root INFO timestep: 1000, acc_reward: 18.29
09:11:42,937 root INFO checkpoint saved: /home/mila/s/sabina.elkins/GROUP_013/results/2022-04-21_09h11m24/td3_ckpt_run_0_18.292.pth.tar
09:11:43,535 root INFO timestep: 2000, acc_reward: 18.30
09:11:43,543 root INFO checkpoint saved: /home/mila/s/sabina.elkins/GROUP_013/results/2022-04-21_09h11m24/td3_ckpt_run_0_18.3.pth.tar
…
