…
23:13:37,186 root INFO Training start for the following model 0 ... 
23:13:37,188 root INFO {'env_specs': {'observation_space': Box(11,), 'action_space': Box(3,)}, 'num_obs': 11, 'num_actions': 3, 'action_limit': 1.0, 'current_timestep': 0, 'current_episode': 0, 'episode_of_last_update': None, 'update_counter': 0, 'device': device(type='cpu'), 'gamma': 0.99, 'polyak': 0.995, 'exploration_timesteps': 0, 'update_frequency_in_episodes': 1, 'update_start_in_episodes': 1000, 'update_start_in_timesteps': 10000, 'number_of_batch_updates': 1000, 'batch_size': 100, 'learning_rate_scheduler_frequency': 100, 'q1_network': QNetwork(
  (network): Sequential(
    (0): Linear(in_features=14, out_features=64, bias=True)
    (1): ReLU()
    (2): Linear(in_features=64, out_features=64, bias=True)
    (3): ReLU()
    (4): Linear(in_features=64, out_features=1, bias=True)
  )
), 'q1_optimizer': Adam (
Parameter Group 0
    amsgrad: False
    betas: (0.9, 0.999)
    eps: 1e-08
    initial_lr: 0.001
    lr: 0.001
    maximize: False
    weight_decay: 0
), 'q1_scheduler': <torch.optim.lr_scheduler.CosineAnnealingWarmRestarts object at 0x7f773751f910>, 'q2_network': QNetwork(
  (network): Sequential(
    (0): Linear(in_features=14, out_features=64, bias=True)
    (1): ReLU()
    (2): Linear(in_features=64, out_features=64, bias=True)
    (3): ReLU()
    (4): Linear(in_features=64, out_features=1, bias=True)
  )
), 'q2_optimizer': Adam (
Parameter Group 0
    amsgrad: False
    betas: (0.9, 0.999)
    eps: 1e-08
    initial_lr: 0.001
    lr: 0.001
    maximize: False
    weight_decay: 0
), 'q2_scheduler': <torch.optim.lr_scheduler.CosineAnnealingWarmRestarts object at 0x7f7737534110>, 'q1_network_target': QNetwork(
  (network): Sequential(
    (0): Linear(in_features=14, out_features=64, bias=True)
    (1): ReLU()
    (2): Linear(in_features=64, out_features=64, bias=True)
    (3): ReLU()
    (4): Linear(in_features=64, out_features=1, bias=True)
  )
), 'q2_network_target': QNetwork(
  (network): Sequential(
    (0): Linear(in_features=14, out_features=64, bias=True)
    (1): ReLU()
    (2): Linear(in_features=64, out_features=64, bias=True)
    (3): ReLU()
    (4): Linear(in_features=64, out_features=1, bias=True)
  )
), 'policy_network': PolicyNetwork(
  (network): Sequential(
    (0): Linear(in_features=11, out_features=64, bias=True)
    (1): ReLU()
    (2): Linear(in_features=64, out_features=64, bias=True)
    (3): ReLU()
  )
  (mu_layer): Linear(in_features=64, out_features=3, bias=True)
  (log_std_layer): Linear(in_features=64, out_features=3, bias=True)
), 'policy_optimizer': Adam (
Parameter Group 0
    amsgrad: False
    betas: (0.9, 0.999)
    eps: 1e-08
    initial_lr: 0.001
    lr: 0.001
    maximize: False
    weight_decay: 0
), 'policy_scheduler': <torch.optim.lr_scheduler.CosineAnnealingWarmRestarts object at 0x7f77374c73d0>, 'alpha': tensor(1., grad_fn=<ExpBackward0>), 'update_alpha': True, 'entropy_target': -3, 'log_alpha': tensor(0., requires_grad=True), 'alpha_lr': 0.0003, 'alpha_optimizer': Adam (
…
