…
11:48:24,973 root INFO Training start for the following model 0 ... 
11:48:24,980 root INFO {'env_specs': {'observation_space': Box(-inf, inf, (11,), float64), 'action_space': Box(-1.0, 1.0, (3,), float32)}, 'num_obs': 11, 'num_actions': 3, 'action_limit': 1.0, 'current_timestep': 0, 'current_episode': 0, 'episode_of_last_update': None, 'device': device(type='cuda'), 'gamma': 0.99, 'polyak': 0.995, 'alpha': 0.1, 'exploration_timesteps': 10000, 'update_frequency_in_episodes': 50, 'update_start_in_episodes': 100, 'number_of_batch_updates': 1000, 'batch_size': 100, 'q1_network': QNetwork(
  (network): Sequential(
    (0): Linear(in_features=14, out_features=128, bias=True)
    (1): ReLU()
    (2): Linear(in_features=128, out_features=64, bias=True)
    (3): ReLU()
    (4): Linear(in_features=64, out_features=1, bias=True)
  )
), 'q1_optimizer': Adam (
Parameter Group 0
    amsgrad: False
    betas: (0.9, 0.999)
    eps: 1e-08
    lr: 0.001
    maximize: False
    weight_decay: 0
), 'q2_network': QNetwork(
  (network): Sequential(
    (0): Linear(in_features=14, out_features=128, bias=True)
    (1): ReLU()
    (2): Linear(in_features=128, out_features=64, bias=True)
    (3): ReLU()
    (4): Linear(in_features=64, out_features=1, bias=True)
  )
), 'q2_optimizer': Adam (
Parameter Group 0
    amsgrad: False
    betas: (0.9, 0.999)
    eps: 1e-08
    lr: 0.001
    maximize: False
    weight_decay: 0
), 'q1_network_target': QNetwork(
  (network): Sequential(
    (0): Linear(in_features=14, out_features=128, bias=True)
    (1): ReLU()
    (2): Linear(in_features=128, out_features=64, bias=True)
    (3): ReLU()
    (4): Linear(in_features=64, out_features=1, bias=True)
  )
), 'q2_network_target': QNetwork(
  (network): Sequential(
    (0): Linear(in_features=14, out_features=128, bias=True)
    (1): ReLU()
    (2): Linear(in_features=128, out_features=64, bias=True)
    (3): ReLU()
    (4): Linear(in_features=64, out_features=1, bias=True)
  )
), 'policy_network': PolicyNetwork(
  (network): Sequential(
    (0): Linear(in_features=11, out_features=128, bias=True)
    (1): ReLU()
    (2): Linear(in_features=128, out_features=64, bias=True)
    (3): ReLU()
  )
  (mu_layer): Linear(in_features=64, out_features=3, bias=True)
  (log_std_layer): Linear(in_features=64, out_features=3, bias=True)
), 'policy_optimizer': Adam (
Parameter Group 0
    amsgrad: False
    betas: (0.9, 0.999)
    eps: 1e-08
    lr: 0.001
    maximize: False
    weight_decay: 0
), 'buffer': <openai_sac_agent.agent.SACBuffer object at 0x7f8173c544d0>}
11:48:30,994 root INFO timestep: 1000, acc_reward: 16.40
11:48:31,81 root INFO checkpoint saved: /home/mila/c/cesare.spinoso/GROUP_013/results/2022-04-20_11h47m39/sac_ckpt_m_0_16.402.pth.tar
…
18:22:31,628 root INFO Training start for the following model 1 ... 
18:22:31,631 root INFO {'env_specs': {'observation_space': Box(-inf, inf, (11,), float64), 'action_space': Box(-1.0, 1.0, (3,), float32)}, 'num_obs': 11, 'num_actions': 3, 'action_limit': 1.0, 'current_timestep': 0, 'current_episode': 0, 'episode_of_last_update': None, 'device': device(type='cuda'), 'gamma': 0.99, 'polyak': 0.995, 'alpha': 0.1, 'exploration_timesteps': 10000, 'update_frequency_in_episodes': 50, 'update_start_in_episodes': 100, 'number_of_batch_updates': 1000, 'batch_size': 100, 'q1_network': QNetwork(
  (network): Sequential(
    (0): Linear(in_features=14, out_features=128, bias=True)
    (1): ReLU()
    (2): Linear(in_features=128, out_features=32, bias=True)
    (3): ReLU()
    (4): Linear(in_features=32, out_features=1, bias=True)
  )
), 'q1_optimizer': Adam (
Parameter Group 0
    amsgrad: False
    betas: (0.9, 0.999)
    eps: 1e-08
    lr: 0.001
    maximize: False
    weight_decay: 0
), 'q2_network': QNetwork(
  (network): Sequential(
    (0): Linear(in_features=14, out_features=128, bias=True)
    (1): ReLU()
    (2): Linear(in_features=128, out_features=32, bias=True)
    (3): ReLU()
    (4): Linear(in_features=32, out_features=1, bias=True)
  )
), 'q2_optimizer': Adam (
Parameter Group 0
    amsgrad: False
    betas: (0.9, 0.999)
    eps: 1e-08
    lr: 0.001
    maximize: False
    weight_decay: 0
), 'q1_network_target': QNetwork(
  (network): Sequential(
    (0): Linear(in_features=14, out_features=128, bias=True)
    (1): ReLU()
    (2): Linear(in_features=128, out_features=32, bias=True)
    (3): ReLU()
    (4): Linear(in_features=32, out_features=1, bias=True)
  )
), 'q2_network_target': QNetwork(
  (network): Sequential(
    (0): Linear(in_features=14, out_features=128, bias=True)
    (1): ReLU()
    (2): Linear(in_features=128, out_features=32, bias=True)
    (3): ReLU()
    (4): Linear(in_features=32, out_features=1, bias=True)
  )
), 'policy_network': PolicyNetwork(
  (network): Sequential(
    (0): Linear(in_features=11, out_features=128, bias=True)
    (1): ReLU()
    (2): Linear(in_features=128, out_features=32, bias=True)
    (3): ReLU()
  )
  (mu_layer): Linear(in_features=32, out_features=3, bias=True)
  (log_std_layer): Linear(in_features=32, out_features=3, bias=True)
), 'policy_optimizer': Adam (
Parameter Group 0
    amsgrad: False
    betas: (0.9, 0.999)
    eps: 1e-08
    lr: 0.001
    maximize: False
    weight_decay: 0
), 'buffer': <openai_sac_agent.agent.SACBuffer object at 0x7f816c0da410>}
18:22:32,345 root INFO timestep: 1000, acc_reward: 4.82
18:22:32,369 root INFO checkpoint saved: /home/mila/c/cesare.spinoso/GROUP_013/results/2022-04-20_11h47m39/sac_ckpt_m_1_4.821.pth.tar
…
