…
22:51:57,292 root INFO {'env_specs': {'observation_space': Box(11,), 'action_space': Box(3,)}, 'num_obs': 11, 'num_actions': 3, 'action_limit': 1.0, 'current_timestep': 0, 'current_episode': 0, 'episode_of_last_update': None, 'update_counter': 0, 'device': device(type='cpu'), 'gamma': 0.99, 'polyak': 0.995, 'exploration_timesteps': 10000, 'update_frequency_in_episodes': 50, 'update_start_in_episodes': 1000, 'update_start_in_timesteps': None, 'number_of_batch_updates': 1000, 'batch_size': 100, 'learning_rate_scheduler_frequency_timesteps': 100000, 'q1_network': QNetwork(
  (network): Sequential(
    (0): Linear(in_features=14, out_features=64, bias=True)
    (1): ReLU()
    (2): Linear(in_features=64, out_features=64, bias=True)
    (3): ReLU()
    (4): Linear(in_features=64, out_features=1, bias=True)
  )
), 'q1_optimizer': Adam (
Parameter Group 0
    amsgrad: False
    betas: (0.9, 0.999)
    eps: 1e-08
    initial_lr: 0.001
    lr: 0.001
    maximize: False
    weight_decay: 0
), 'q1_scheduler': <torch.optim.lr_scheduler.ExponentialLR object at 0x7f446397ba10>, 'q2_network': QNetwork(
  (network): Sequential(
    (0): Linear(in_features=14, out_features=64, bias=True)
    (1): ReLU()
    (2): Linear(in_features=64, out_features=64, bias=True)
    (3): ReLU()
    (4): Linear(in_features=64, out_features=1, bias=True)
  )
), 'q2_optimizer': Adam (
Parameter Group 0
    amsgrad: False
    betas: (0.9, 0.999)
    eps: 1e-08
    initial_lr: 0.001
    lr: 0.001
    maximize: False
    weight_decay: 0
), 'q2_scheduler': <torch.optim.lr_scheduler.ExponentialLR object at 0x7f446397bdd0>, 'q1_network_target': QNetwork(
  (network): Sequential(
    (0): Linear(in_features=14, out_features=64, bias=True)
    (1): ReLU()
    (2): Linear(in_features=64, out_features=64, bias=True)
    (3): ReLU()
    (4): Linear(in_features=64, out_features=1, bias=True)
  )
), 'q2_network_target': QNetwork(
  (network): Sequential(
    (0): Linear(in_features=14, out_features=64, bias=True)
    (1): ReLU()
    (2): Linear(in_features=64, out_features=64, bias=True)
    (3): ReLU()
    (4): Linear(in_features=64, out_features=1, bias=True)
  )
), 'policy_network': PolicyNetwork(
  (network): Sequential(
    (0): Linear(in_features=11, out_features=64, bias=True)
    (1): ReLU()
    (2): Linear(in_features=64, out_features=64, bias=True)
    (3): ReLU()
  )
  (mu_layer): Linear(in_features=64, out_features=3, bias=True)
  (log_std_layer): Linear(in_features=64, out_features=3, bias=True)
), 'policy_optimizer': Adam (
Parameter Group 0
    amsgrad: False
    betas: (0.9, 0.999)
    eps: 1e-08
    initial_lr: 0.001
    lr: 0.001
    maximize: False
    weight_decay: 0
), 'policy_scheduler': <torch.optim.lr_scheduler.ExponentialLR object at 0x7f4463a262d0>, 'alpha': 0.2, 'update_alpha': False, 'buffer': <openai_sac_agent.agent.SACBuffer object at 0x7f4463a26410>}
…
