22:10:40,555 root INFO Loaded the hyperparameter grid
22:10:50,287 root INFO Training start for the following model 0 ... 
22:10:50,288 root INFO {'env_specs': {'observation_space': Box(-inf, inf, (11,), float64), 'action_space': Box(-1.0, 1.0, (3,), float32)}, 'num_obs': 11, 'num_actions': 3, 'timestep_of_last_episode': 0, 'time_since_last_update': 0, 'device': device(type='cuda'), 'gamma': 0.99, 'lambda_': 0.97, 'kl_threshold': 0.015, 'clip_rate': 0.2, 'actor_model': Actor(
  (network): Sequential(
    (0): Linear(in_features=11, out_features=64, bias=True)
    (1): ReLU()
    (2): Linear(in_features=64, out_features=64, bias=True)
    (3): ReLU()
    (4): Linear(in_features=64, out_features=3, bias=True)
  )
), 'actor_learning_rate': 0.0003, 'actor_optimizer': Adam (
Parameter Group 0
    amsgrad: False
    betas: (0.9, 0.999)
    eps: 1e-08
    lr: 0.0003
    maximize: False
    weight_decay: 0
), 'critic_model': Critic(
  (network): Sequential(
    (0): Linear(in_features=11, out_features=64, bias=True)
    (1): ReLU()
    (2): Linear(in_features=64, out_features=64, bias=True)
    (3): ReLU()
    (4): Linear(in_features=64, out_features=1, bias=True)
  )
), 'critic_learning_rate': 0.001, 'critic_optimizer': Adam (
Parameter Group 0
    amsgrad: False
    betas: (0.9, 0.999)
    eps: 1e-08
    lr: 0.001
    maximize: False
    weight_decay: 0
), 'number_of_critic_updates': 80, 'number_of_actor_updates': 80, 'buffer': <ppo_agent.agent.PPOBuffer object at 0x7fd593864730>}
22:10:51,663 root INFO timestep: 1000, acc_reward: 11.22
…
02:50:51,948 matplotlib.font_manager DEBUG findfont: Matching sans\-serif:style=normal:variant=normal:weight=normal:stretch=normal:size=10.0 to DejaVu Sans ('/home/mila/s/sabina.elkins/.conda/envs/c579/lib/python3.8/site-packages/matplotlib/mpl-data/fonts/ttf/DejaVuSans.ttf') with score of 0.050000.
02:50:53,776 root INFO 
Rewards graphed successfully. See /home/mila/s/sabina.elkins/GROUP_013/results/2022-04-09_22h10m40
02:50:53,797 root INFO Training start for the following model 1 ... 
02:50:53,798 root INFO {'env_specs': {'observation_space': Box(-inf, inf, (11,), float64), 'action_space': Box(-1.0, 1.0, (3,), float32)}, 'num_obs': 11, 'num_actions': 3, 'timestep_of_last_episode': 0, 'time_since_last_update': 0, 'device': device(type='cuda'), 'gamma': 0.99, 'lambda_': 0.97, 'kl_threshold': 0.015, 'clip_rate': 0.2, 'actor_model': Actor(
  (network): Sequential(
    (0): Linear(in_features=11, out_features=100, bias=True)
    (1): ReLU()
    (2): Linear(in_features=100, out_features=50, bias=True)
    (3): ReLU()
    (4): Linear(in_features=50, out_features=25, bias=True)
    (5): ReLU()
    (6): Linear(in_features=25, out_features=3, bias=True)
  )
), 'actor_learning_rate': 0.0003, 'actor_optimizer': Adam (
Parameter Group 0
    amsgrad: False
    betas: (0.9, 0.999)
    eps: 1e-08
    lr: 0.0003
    maximize: False
    weight_decay: 0
), 'critic_model': Critic(
  (network): Sequential(
    (0): Linear(in_features=11, out_features=100, bias=True)
    (1): ReLU()
    (2): Linear(in_features=100, out_features=50, bias=True)
    (3): ReLU()
    (4): Linear(in_features=50, out_features=25, bias=True)
    (5): ReLU()
    (6): Linear(in_features=25, out_features=1, bias=True)
  )
), 'critic_learning_rate': 0.001, 'critic_optimizer': Adam (
Parameter Group 0
    amsgrad: False
    betas: (0.9, 0.999)
    eps: 1e-08
    lr: 0.001
    maximize: False
    weight_decay: 0
), 'number_of_critic_updates': 80, 'number_of_actor_updates': 80, 'buffer': <ppo_agent.agent.PPOBuffer object at 0x7fd5843234f0>}
02:50:55,333 root INFO timestep: 1000, acc_reward: 20.03
…
07:19:41,209 root INFO Time Elapsed During Training: 16127.410552024841

07:19:43,60 root INFO 
Rewards graphed successfully. See /home/mila/s/sabina.elkins/GROUP_013/results/2022-04-09_22h10m40
07:19:43,65 root INFO Training start for the following model 2 ... 
07:19:43,66 root INFO {'env_specs': {'observation_space': Box(-inf, inf, (11,), float64), 'action_space': Box(-1.0, 1.0, (3,), float32)}, 'num_obs': 11, 'num_actions': 3, 'timestep_of_last_episode': 0, 'time_since_last_update': 0, 'device': device(type='cuda'), 'gamma': 0.99, 'lambda_': 0.97, 'kl_threshold': 0.015, 'clip_rate': 0.2, 'actor_model': Actor(
  (network): Sequential(
    (0): Linear(in_features=11, out_features=400, bias=True)
    (1): ReLU()
    (2): Linear(in_features=400, out_features=300, bias=True)
    (3): ReLU()
    (4): Linear(in_features=300, out_features=3, bias=True)
  )
), 'actor_learning_rate': 0.0003, 'actor_optimizer': Adam (
Parameter Group 0
    amsgrad: False
    betas: (0.9, 0.999)
    eps: 1e-08
    lr: 0.0003
    maximize: False
    weight_decay: 0
), 'critic_model': Critic(
  (network): Sequential(
    (0): Linear(in_features=11, out_features=400, bias=True)
    (1): ReLU()
    (2): Linear(in_features=400, out_features=300, bias=True)
    (3): ReLU()
    (4): Linear(in_features=300, out_features=1, bias=True)
  )
), 'critic_learning_rate': 0.001, 'critic_optimizer': Adam (
Parameter Group 0
    amsgrad: False
    betas: (0.9, 0.999)
    eps: 1e-08
    lr: 0.001
    maximize: False
    weight_decay: 0
), 'number_of_critic_updates': 80, 'number_of_actor_updates': 80, 'buffer': <ppo_agent.agent.PPOBuffer object at 0x7fd58445e9d0>}
07:19:46,480 root INFO timestep: 1000, acc_reward: 36.06
…
