…
12:07:45,267 root INFO {'env_specs': {'observation_space': Box(-inf, inf, (11,), float64), 'action_space': Box(-1.0, 1.0, (3,), float32)}, 'num_obs': 11, 'num_actions': 3, 'action_limit': 1.0, 'current_timestep': 0, 'current_episode': 0, 'episode_of_last_update': None, 'device': device(type='cuda'), 'gamma': 0.99, 'polyak': 0.995, 'action_noise_scale': 0.1, 'action_noise_rescaling': 1, 'action_noise_rescaling_frequency': 500000, 'target_noise_scale': 0.2, 'target_noise_clip': 0.5, 'policy_delay': 2, 'exploration_timesteps': 10000, 'update_frequency_in_episodes': 50, 'update_start_in_episodes': 1000, 'number_of_batch_updates': 1000, 'batch_size': 100, 'q1_network': QNetwork(
  (network): Sequential(
    (0): Linear(in_features=14, out_features=64, bias=True)
    (1): ReLU()
    (2): Linear(in_features=64, out_features=64, bias=True)
    (3): ReLU()
    (4): Linear(in_features=64, out_features=1, bias=True)
  )
), 'q1_optimizer': Adam (
Parameter Group 0
    amsgrad: False
    betas: (0.9, 0.999)
    eps: 1e-08
    lr: 0.001
    maximize: False
    weight_decay: 0
), 'q2_network': QNetwork(
  (network): Sequential(
    (0): Linear(in_features=14, out_features=64, bias=True)
    (1): ReLU()
    (2): Linear(in_features=64, out_features=64, bias=True)
    (3): ReLU()
    (4): Linear(in_features=64, out_features=1, bias=True)
  )
), 'q2_optimizer': Adam (
Parameter Group 0
    amsgrad: False
    betas: (0.9, 0.999)
    eps: 1e-08
    lr: 0.001
    maximize: False
    weight_decay: 0
), 'q1_network_target': QNetwork(
  (network): Sequential(
    (0): Linear(in_features=14, out_features=64, bias=True)
    (1): ReLU()
    (2): Linear(in_features=64, out_features=64, bias=True)
    (3): ReLU()
    (4): Linear(in_features=64, out_features=1, bias=True)
  )
), 'q2_network_target': QNetwork(
  (network): Sequential(
    (0): Linear(in_features=14, out_features=64, bias=True)
    (1): ReLU()
    (2): Linear(in_features=64, out_features=64, bias=True)
    (3): ReLU()
    (4): Linear(in_features=64, out_features=1, bias=True)
  )
), 'policy_network': PolicyNetwork(
  (network): Sequential(
    (0): Linear(in_features=11, out_features=64, bias=True)
    (1): ReLU()
    (2): Linear(in_features=64, out_features=64, bias=True)
    (3): ReLU()
    (4): Linear(in_features=64, out_features=3, bias=True)
    (5): Tanh()
  )
), 'policy_optimizer': Adam (
Parameter Group 0
    amsgrad: False
    betas: (0.9, 0.999)
    eps: 1e-08
    lr: 0.001
    maximize: False
    weight_decay: 0
), 'policy_network_target': PolicyNetwork(
  (network): Sequential(
    (0): Linear(in_features=11, out_features=64, bias=True)
    (1): ReLU()
    (2): Linear(in_features=64, out_features=64, bias=True)
    (3): ReLU()
    (4): Linear(in_features=64, out_features=3, bias=True)
    (5): Tanh()
  )
), 'buffer': <td3_agent.agent.TD3Buffer object at 0x7fe1619cb190>}
12:07:47,79 root INFO timestep: 1000, acc_reward: 100.23
12:07:47,97 root INFO checkpoint saved: /home/mila/c/cesare.spinoso/GROUP_013/results/2022-04-10_12h07m38/td3_ckpt_m_0_100.234.pth.tar
12:07:48,167 root INFO timestep: 2000, acc_reward: 100.31
12:07:48,182 root INFO checkpoint saved: /home/mila/c/cesare.spinoso/GROUP_013/results/2022-04-10_12h07m38/td3_ckpt_m_0_100.311.pth.tar
…
15:03:04,432 root INFO {'env_specs': {'observation_space': Box(-inf, inf, (11,), float64), 'action_space': Box(-1.0, 1.0, (3,), float32)}, 'num_obs': 11, 'num_actions': 3, 'action_limit': 1.0, 'current_timestep': 0, 'current_episode': 0, 'episode_of_last_update': None, 'device': device(type='cuda'), 'gamma': 0.99, 'polyak': 0.995, 'action_noise_scale': 0.1, 'action_noise_rescaling': 1, 'action_noise_rescaling_frequency': 500000, 'target_noise_scale': 0.2, 'target_noise_clip': 0.5, 'policy_delay': 2, 'exploration_timesteps': 10000, 'update_frequency_in_episodes': 50, 'update_start_in_episodes': 1000, 'number_of_batch_updates': 1000, 'batch_size': 100, 'q1_network': QNetwork(
  (network): Sequential(
    (0): Linear(in_features=14, out_features=100, bias=True)
    (1): ReLU()
    (2): Linear(in_features=100, out_features=50, bias=True)
    (3): ReLU()
    (4): Linear(in_features=50, out_features=25, bias=True)
    (5): ReLU()
    (6): Linear(in_features=25, out_features=1, bias=True)
  )
), 'q1_optimizer': Adam (
Parameter Group 0
    amsgrad: False
    betas: (0.9, 0.999)
    eps: 1e-08
    lr: 0.001
    maximize: False
    weight_decay: 0
), 'q2_network': QNetwork(
  (network): Sequential(
    (0): Linear(in_features=14, out_features=100, bias=True)
    (1): ReLU()
    (2): Linear(in_features=100, out_features=50, bias=True)
    (3): ReLU()
    (4): Linear(in_features=50, out_features=25, bias=True)
    (5): ReLU()
    (6): Linear(in_features=25, out_features=1, bias=True)
  )
), 'q2_optimizer': Adam (
Parameter Group 0
    amsgrad: False
    betas: (0.9, 0.999)
    eps: 1e-08
    lr: 0.001
    maximize: False
    weight_decay: 0
), 'q1_network_target': QNetwork(
  (network): Sequential(
    (0): Linear(in_features=14, out_features=100, bias=True)
    (1): ReLU()
    (2): Linear(in_features=100, out_features=50, bias=True)
    (3): ReLU()
    (4): Linear(in_features=50, out_features=25, bias=True)
    (5): ReLU()
    (6): Linear(in_features=25, out_features=1, bias=True)
  )
), 'q2_network_target': QNetwork(
  (network): Sequential(
    (0): Linear(in_features=14, out_features=100, bias=True)
    (1): ReLU()
    (2): Linear(in_features=100, out_features=50, bias=True)
    (3): ReLU()
    (4): Linear(in_features=50, out_features=25, bias=True)
    (5): ReLU()
    (6): Linear(in_features=25, out_features=1, bias=True)
  )
), 'policy_network': PolicyNetwork(
  (network): Sequential(
    (0): Linear(in_features=11, out_features=100, bias=True)
    (1): ReLU()
    (2): Linear(in_features=100, out_features=50, bias=True)
    (3): ReLU()
    (4): Linear(in_features=50, out_features=25, bias=True)
    (5): ReLU()
    (6): Linear(in_features=25, out_features=3, bias=True)
    (7): Tanh()
  )
), 'policy_optimizer': Adam (
Parameter Group 0
    amsgrad: False
    betas: (0.9, 0.999)
    eps: 1e-08
    lr: 0.001
    maximize: False
    weight_decay: 0
), 'policy_network_target': PolicyNetwork(
  (network): Sequential(
    (0): Linear(in_features=11, out_features=100, bias=True)
    (1): ReLU()
    (2): Linear(in_features=100, out_features=50, bias=True)
    (3): ReLU()
    (4): Linear(in_features=50, out_features=25, bias=True)
    (5): ReLU()
    (6): Linear(in_features=25, out_features=3, bias=True)
    (7): Tanh()
  )
), 'buffer': <td3_agent.agent.TD3Buffer object at 0x7fe0e009ca10>}
15:03:04,970 root INFO timestep: 1000, acc_reward: 7.17
15:03:04,981 root INFO checkpoint saved: /home/mila/c/cesare.spinoso/GROUP_013/results/2022-04-10_12h07m38/td3_ckpt_m_1_7.173.pth.tar
15:03:05,500 root INFO timestep: 2000, acc_reward: 7.18
15:03:05,508 root INFO checkpoint saved: /home/mila/c/cesare.spinoso/GROUP_013/results/2022-04-10_12h07m38/td3_ckpt_m_1_7.177.pth.tar
…
18:10:54,43 root INFO {'env_specs': {'observation_space': Box(-inf, inf, (11,), float64), 'action_space': Box(-1.0, 1.0, (3,), float32)}, 'num_obs': 11, 'num_actions': 3, 'action_limit': 1.0, 'current_timestep': 0, 'current_episode': 0, 'episode_of_last_update': None, 'device': device(type='cuda'), 'gamma': 0.99, 'polyak': 0.995, 'action_noise_scale': 0.1, 'action_noise_rescaling': 1, 'action_noise_rescaling_frequency': 500000, 'target_noise_scale': 0.2, 'target_noise_clip': 0.5, 'policy_delay': 2, 'exploration_timesteps': 10000, 'update_frequency_in_episodes': 50, 'update_start_in_episodes': 1000, 'number_of_batch_updates': 1000, 'batch_size': 100, 'q1_network': QNetwork(
  (network): Sequential(
    (0): Linear(in_features=14, out_features=400, bias=True)
    (1): ReLU()
    (2): Linear(in_features=400, out_features=300, bias=True)
    (3): ReLU()
    (4): Linear(in_features=300, out_features=1, bias=True)
  )
), 'q1_optimizer': Adam (
Parameter Group 0
    amsgrad: False
    betas: (0.9, 0.999)
    eps: 1e-08
    lr: 0.001
    maximize: False
    weight_decay: 0
), 'q2_network': QNetwork(
  (network): Sequential(
    (0): Linear(in_features=14, out_features=400, bias=True)
    (1): ReLU()
    (2): Linear(in_features=400, out_features=300, bias=True)
    (3): ReLU()
    (4): Linear(in_features=300, out_features=1, bias=True)
  )
), 'q2_optimizer': Adam (
Parameter Group 0
    amsgrad: False
    betas: (0.9, 0.999)
    eps: 1e-08
    lr: 0.001
    maximize: False
    weight_decay: 0
), 'q1_network_target': QNetwork(
  (network): Sequential(
    (0): Linear(in_features=14, out_features=400, bias=True)
    (1): ReLU()
    (2): Linear(in_features=400, out_features=300, bias=True)
    (3): ReLU()
    (4): Linear(in_features=300, out_features=1, bias=True)
  )
), 'q2_network_target': QNetwork(
  (network): Sequential(
    (0): Linear(in_features=14, out_features=400, bias=True)
    (1): ReLU()
    (2): Linear(in_features=400, out_features=300, bias=True)
    (3): ReLU()
    (4): Linear(in_features=300, out_features=1, bias=True)
  )
), 'policy_network': PolicyNetwork(
  (network): Sequential(
    (0): Linear(in_features=11, out_features=400, bias=True)
    (1): ReLU()
    (2): Linear(in_features=400, out_features=300, bias=True)
    (3): ReLU()
    (4): Linear(in_features=300, out_features=3, bias=True)
    (5): Tanh()
  )
), 'policy_optimizer': Adam (
Parameter Group 0
    amsgrad: False
    betas: (0.9, 0.999)
    eps: 1e-08
    lr: 0.001
    maximize: False
    weight_decay: 0
), 'policy_network_target': PolicyNetwork(
  (network): Sequential(
    (0): Linear(in_features=11, out_features=400, bias=True)
    (1): ReLU()
    (2): Linear(in_features=400, out_features=300, bias=True)
    (3): ReLU()
    (4): Linear(in_features=300, out_features=3, bias=True)
    (5): Tanh()
  )
), 'buffer': <td3_agent.agent.TD3Buffer object at 0x7fe0e00775d0>}
18:10:54,879 root INFO timestep: 1000, acc_reward: 40.87
18:10:54,891 root INFO checkpoint saved: /home/mila/c/cesare.spinoso/GROUP_013/results/2022-04-10_12h07m38/td3_ckpt_m_2_40.865.pth.tar
18:10:55,732 root INFO timestep: 2000, acc_reward: 40.72
18:10:56,491 root INFO timestep: 3000, acc_reward: 40.51
…
