…
10:30:01,992 root INFO {'env_specs': {'observation_space': Box(-inf, inf, (11,), float64), 'action_space': Box(-1.0, 1.0, (3,), float32)}, 'num_obs': 11, 'num_actions': 3, 'action_limit': 1.0, 'current_timestep': 0, 'current_episode': 0, 'episode_of_last_update': None, 'device': device(type='cuda'), 'gamma': 0.99, 'polyak': 0.995, 'action_noise_scale': 0.1, 'action_noise_rescaling': 1, 'action_noise_rescaling_frequency': 500000, 'exploration_timesteps': 10000, 'update_frequency_in_episodes': 50, 'update_start_in_episodes': 1000, 'number_of_batch_updates': 1000, 'batch_size': 100, 'q_network': QNetwork(
  (network): Sequential(
    (0): Linear(in_features=14, out_features=400, bias=True)
    (1): ReLU()
    (2): Linear(in_features=400, out_features=300, bias=True)
    (3): ReLU()
    (4): Linear(in_features=300, out_features=1, bias=True)
  )
), 'q_optimizer': Adam (
Parameter Group 0
    amsgrad: False
    betas: (0.9, 0.999)
    eps: 1e-08
    lr: 0.001
    maximize: False
    weight_decay: 0
), 'q_network_target': QNetwork(
  (network): Sequential(
    (0): Linear(in_features=14, out_features=400, bias=True)
    (1): ReLU()
    (2): Linear(in_features=400, out_features=300, bias=True)
    (3): ReLU()
    (4): Linear(in_features=300, out_features=1, bias=True)
  )
), 'policy_network': PolicyNetwork(
  (network): Sequential(
    (0): Linear(in_features=11, out_features=400, bias=True)
    (1): ReLU()
    (2): Linear(in_features=400, out_features=300, bias=True)
    (3): ReLU()
    (4): Linear(in_features=300, out_features=3, bias=True)
    (5): Tanh()
  )
), 'policy_optimizer': Adam (
Parameter Group 0
    amsgrad: False
    betas: (0.9, 0.999)
    eps: 1e-08
    lr: 0.001
    maximize: False
    weight_decay: 0
), 'policy_network_target': PolicyNetwork(
  (network): Sequential(
    (0): Linear(in_features=11, out_features=400, bias=True)
    (1): ReLU()
    (2): Linear(in_features=400, out_features=300, bias=True)
    (3): ReLU()
    (4): Linear(in_features=300, out_features=3, bias=True)
    (5): Tanh()
  )
), 'buffer': <ddpg_agent.agent.DDPGBuffer object at 0x7f1858fc60d0>}
10:30:02,838 root INFO timestep: 1000, acc_reward: 20.40
10:30:02,955 root INFO checkpoint saved: /home/mila/s/sabina.elkins/GROUP_013/results/2022-04-20_10h28m48/ddpg_ckpt_run_0_20.4.pth.tar
10:30:03,480 root INFO timestep: 2000, acc_reward: 20.38
10:30:03,973 root INFO timestep: 3000, acc_reward: 20.35
…
